…
wandb: WARNING The save_model argument by default saves the model in the HDF5 format that cannot save custom objects like subclassed models and custom layers. This behavior will be deprecated in a future release in favor of the SavedModel format. Meanwhile, the HDF5 model is saved as W&B files and the SavedModel as W&B Artifacts.
Model: "handwritting_rec_model"
__________________________________________________________________________________________________
 Layer (type)                   Output Shape         Param #     Connected to
==================================================================================================
 image (InputLayer)             [(None, 128, 32, 1)  0           []
                                ]
 conv_layer0 (Conv2D)           (None, 128, 32, 64)  1664        ['image[0][0]']
 batch_normalization (BatchNorm  (None, 128, 32, 64)  256        ['conv_layer0[0][0]']
 alization)
 max_pooling2d (MaxPooling2D)   (None, 64, 16, 64)   0           ['batch_normalization[0][0]']
 conv_layer1 (Conv2D)           (None, 64, 16, 64)   102464      ['max_pooling2d[0][0]']
 batch_normalization_1 (BatchNo  (None, 64, 16, 64)  256         ['conv_layer1[0][0]']
 rmalization)
 max_pooling2d_1 (MaxPooling2D)  (None, 32, 8, 64)   0           ['batch_normalization_1[0][0]']
 conv_layer2 (Conv2D)           (None, 32, 8, 64)    36928       ['max_pooling2d_1[0][0]']
 batch_normalization_2 (BatchNo  (None, 32, 8, 64)   256         ['conv_layer2[0][0]']
 rmalization)
 max_pooling2d_2 (MaxPooling2D)  (None, 16, 4, 64)   0           ['batch_normalization_2[0][0]']
 conv_layer3 (Conv2D)           (None, 16, 4, 64)    36928       ['max_pooling2d_2[0][0]']
 batch_normalization_3 (BatchNo  (None, 16, 4, 64)   256         ['conv_layer3[0][0]']
 rmalization)
 max_pooling2d_3 (MaxPooling2D)  (None, 8, 2, 64)    0           ['batch_normalization_3[0][0]']
 conv_layer4 (Conv2D)           (None, 8, 2, 64)     36928       ['max_pooling2d_3[0][0]']
 batch_normalization_4 (BatchNo  (None, 8, 2, 64)    256         ['conv_layer4[0][0]']
 rmalization)
 max_pooling2d_4 (MaxPooling2D)  (None, 4, 1, 64)    0           ['batch_normalization_4[0][0]']
 reshape (Reshape)              (None, 32, 8)        0           ['max_pooling2d_4[0][0]']
 dense1 (Dense)                 (None, 32, 64)       576         ['reshape[0][0]']
 dropout (Dropout)              (None, 32, 64)       0           ['dense1[0][0]']
 Bidirectional_layer0 (Bidirect  (None, 32, 256)     197632      ['dropout[0][0]']
 ional)
 Bidirectional_layer1 (Bidirect  (None, 32, 128)     164352      ['Bidirectional_layer0[0][0]']
 ional)
 Bidirectional_layer2 (Bidirect  (None, 32, 64)      41216       ['Bidirectional_layer1[0][0]']
 ional)
 label (InputLayer)             [(None, None)]       0           []
 dense2 (Dense)                 (None, 32, 81)       5265        ['Bidirectional_layer2[0][0]']
 ctc_loss (CTCLayer)            (None, 32, 81)       0           ['label[0][0]',
                                                                  'dense2[0][0]']
==================================================================================================
Total params: 625,233
Trainable params: 624,593
Non-trainable params: 640
__________________________________________________________________________________________________
Epoch 1/100
Traceback (most recent call last):
…
